unsupGraphModelDict300.bin (torch, 738967 bytes, 6 tensors)

gconv1.lin_l.weight f4 [300, 6]
0	0x400a0f04	2.1571665
1	0xbf54cf9a	-0.83129275
2	0xc0b40f10	-5.6268387
3	0x3cbc36e2	0.022975389
4	0xc0729d78	-3.7908611
5	0xc098a64d	-4.7703004
6	0x3e9287ef	0.28619334
7	0xbee7762e	-0.4520735
8	0xbf31f7b8	-0.69518614
9	0xbc483238	-0.012219004
10	0xbf140b27	-0.5782952
11	0xbeded0c1	-0.43518642
12	0x3f41e145	0.7573436
13	0xbf1dc1b4	-0.6162369
14	0xc086083c	-4.188505
15	0x3d57e38f	0.05270725
16	0xc005766d	-2.0853531
17	0xc043a1a2	-3.0567403
18	0x3f19843c	0.599674
19	0xbeefd5ae	-0.46842712
20	0xc06843eb	-3.6291454
21	0x3c1b7dc6	0.009490436
22	0xc0196fe1	-2.3974535
23	0xc0353f9f	-2.8320081
24	0x3fec2093	1.8447441
25	0xbfe3abbe	-1.7786787
26	0xc08b846e	-4.3599157
27	0x3cd149f4	0.025547959
28	0xc0466d7e	-3.1004329
29	0xc0831a8d	-4.096991
30	0x3fb8ecf7	1.4447316
31	0xbf1eacc2	-0.6198236
32	0xc07b57c8	-3.9272327
33	0x3dc414d9	0.09574289
34	0xc058f3e1	-3.3898852
35	0xc06b9721	-3.6810992
36	0x3e09e2ca	0.1346542
37	0xbf6ddb31	-0.92912585
38	0xc046711a	-3.1006532
39	0x3d36148d	0.044453193
40	0xc045b403	-3.089112
41	0xc0490bf0	-3.1413536
42	0x3ff09171	1.8794385
43	0xbfd5fbe3	-1.6717495
44	0xc0a214dc	-5.0650463
45	0x3d9995e7	0.07499295
46	0xc08ea2fe	-4.4573965
47	0xc0bae200	-5.840088
48	0x3fc80e5e	1.5629385
49	0xbf10e102	-0.56593335
50	0xc067f056	-3.624044
51	0x3da13517	0.07871454
52	0xc055845c	-3.3362036
53	0xc084220b	-4.1291556
54	0x3f89aaf6	1.0755298
55	0xbf76e4f6	-0.96443117
56	0xc035fe94	-2.8436632
57	0x3c010e4f	0.007876947
58	0xbfbebedb	-1.4901994
59	0xc00335ed	-2.0501664
60	0x3fb5b845	1.419686
61	0xbf02ddbe	-0.511196
62	0xc0994141	-4.7892156
63	0x3d57fda5	0.05273213
64	0xc0826447	-4.074741
65	0xc0bb8205	-5.8596215
66	0x3fb1e35f	1.3897513
67	0xbfcfa3e7	-1.6221894
68	0xc09c8f27	-4.8924747
69	0x3daa3582	0.08310987
70	0xc0842f2a	-4.1307573
71	0xc08202dc	-4.062849
72	0x3f8a2c05	1.0794684
73	0xbee94806	-0.45562762
74	0xc09222f7	-4.566768
75	0x3d959323	0.07303455
76	0xc05d50b8	-3.4580517
77	0xc08db95b	-4.4288764
78	0x3ffe692e	1.9875848
79	0xc00a70d6	-2.163137
80	0xc0a1c980	-5.055847
81	0x3dbc0d8a	0.0918227
82	0xc0c18e36	-6.0486097
83	0xc0bc2620	-5.879654
84	0x3f4ab759	0.79186016
85	0x3f2ace73	0.66721267
86	0xc0019e75	-2.0252964
87	0x3cc0a345	0.023515353
88	0xbf9d0f7a	-1.2270348
89	0xc00fc7cc	-2.2465696
90	0x3fabf9b8	1.3435583
91	0xbe002a1e	-0.12516066
92	0xc05038e2	-3.2534719
93	0xbd05a19b	-0.032624822
94	0xc087a995	-4.239451
95	0xc06fe7e7	-3.7485292
96	0x3f1a83c5	0.60357314
97	0xc05c2024	-3.4394617
98	0xc0cdfaf6	-6.436885
99	0x3d95e6b4	0.07319394
100	0xc0899f33	-4.3006835
101	0xc0cb9230	-6.361595
102	0x3fe8239a	1.8135865
103	0xbf4ebea5	-0.8075965
104	0xc08f7a8a	-4.4837084
105	0x3d7b9bcf	0.061427888
106	0xbfc1ed0c	-1.5150466
107	0xc07c46b6	-3.9418159
108	0x3d029b75	0.031886537
109	0xbebfd751	-0.3746896
110	0xbed54ac1	-0.41658595
111	0x3a10bee8	0.00055216113
112	0xbf2fbf9e	-0.6865176
113	0xbf1863bf	-0.595272
114	0x3dece602	0.11567308
115	0xbe622ff2	-0.22088602
116	0xbe9d3bc9	-0.30709675
117	0x3bf015ce	0.007326818
118	0xbf831fb2	-1.0244048
119	0xbf1ad1c2	-0.60476315
120	0x408f8495	4.4849343
121	0xc01400b5	-2.3125432
122	0xc0fc6904	-7.8878193
123	0x3b37cf06	0.002804698
124	0xc0b2e62a	-5.590596
125	0xc0ee36be	-7.4441824
126	0x3ff34d54	1.9007974
127	0xbfd94f3d	-1.6977307
128	0xc0b840d2	-5.7579126
129	0x3d0a938c	0.033832118
130	0xc0964538	-4.6959496
131	0xc0d1e601	-6.5593266
132	0x4017ddde	2.3729167
133	0xbff95ced	-1.9481484
134	0xc082ddad	-4.08956
135	0x3cbd5452	0.023111496
136	0xc04a98dc	-3.1655798
137	0xc0a1b5ec	-5.0534573
138	0x3fb2d761	1.3971978
139	0xc025dbf6	-2.5915504
140	0xc090cfae	-4.5253515
141	0x3d898039	0.0671391
142	0xc090b7c9	-4.5224347
143	0xc0ab4d40	-5.35318
144	0x3f4fbd79	0.8114849
145	0xc023b1ac	-2.5577192
146	0xc0c0aa2e	-6.020774
147	0x3c68d886	0.014211779
148	0xc0959b6b	-4.675222
149	0xc0ae29e0	-5.4426117
150	0x3eca96a6	0.3956806
151	0xc02450be	-2.567428
152	0xc0b10152	-5.531411
153	0x3e298d79	0.16557874
154	0xc0aad323	-5.3382735
155	0xc0bc76a6	-5.8894835
156	0x3eb7dc18	0.35910106
157	0x3f029664	0.5101073
158	0xbfb18519	-1.3868743
159	0x3ba335a0	0.004980758
160	0xbf918a16	-1.1370265
161	0xbf10bedb	-0.5654122
162	0x408b9319	4.3617063
163	0xc05863ad	-3.3810837
164	0xc0d31447	-6.5962253
165	0x3db37c32	0.08763923
166	0xc0a56181	-5.1681523
167	0xc0dfe537	-6.9967303
168	0x3f177e58	0.5917716
169	0xbe07a96d	-0.13248225
170	0xbf86a455	-1.05189
171	0xbc690e30	-0.014224574
172	0xbf71caca	-0.94450057
173	0xbf5fbc07	-0.8739628
174	0x40339953	2.8062332
175	0xc032e922	-2.7954793
176	0xc0e98eba	-7.2986727
177	0x3ddaae8d	0.10677824
178	0xc098d9a1	-4.776566
179	0xc0f9952e	-7.7994604
180	0x3f6b2fd7	0.9186987
181	0x3f133fd7	0.57519287
182	0xbfcd38be	-1.6032941
183	0xba5397d3	-0.0008071635
184	0xbfb53075	-1.4155413
185	0xbf6005f2	-0.8750907
186	0x3f22203b	0.6333043
187	0xbfcc63db	-1.5967973
188	0xc08ff02e	-4.498069
189	0xbc93e604	-0.018054016
190	0xc064861b	-3.5706851
191	0xc09f2c99	-4.974194
192	0x40b3e51a	5.6217165
193	0xc06b3223	-3.674935
194	0xc113546f	-9.208114
195	0x3d17dd58	0.037076324
196	0xc0e71610	-7.221443
197	0xc10b5039	-8.707086
198	0x3ff739a4	1.9314466
199	0xbea95114	-0.3306967
200	0xc02c9ccc	-2.6970701
201	0x3bf1fbe5	0.0073847645
202	0xc018e3c8	-2.3889027
203	0xc0403f76	-3.0038733
204	0x3ff9d6c4	1.9518666
205	0xbf3374c3	-0.7010004
206	0xc0c69633	-6.205835
207	0x3d042a5a	0.032266952
208	0xc0880938	-4.2511253
209	0xc082717e	-4.076354
210	0x400190a8	2.024454
211	0xc064664b	-3.5687435
212	0xc0dba33d	-6.8636765
213	0x3e06ba90	0.13157105
214	0xc0a195dc	-5.0495434
215	0xc0d3c5e2	-6.6179056
216	0x3fbe74d8	1.4879408
217	0xbf8af35c	-1.0855517
218	0xc0802b21	-4.0052648
219	0x3c543ada	0.012953484
220	0xc0338d30	-2.8054924
221	0xc0881b19	-4.253308
222	0x404b6952	3.1783032
223	0xc014f520	-2.3274612
224	0xc0d0348b	-6.506414
225	0xbdba9436	-0.091103
226	0xc0ce1eb3	-6.4412475
227	0xc0d91667	-6.7839847
228	0x3ff53646	1.9157188
229	0xbfcfa7ad	-1.6223046
230	0xc098bcf6	-4.7730665
231	0xbbeee60b	-0.007290607
232	0xc048f15d	-3.1397316
233	0xc05d66f2	-3.4594083
234	0x3f7ac5bd	0.97957975
235	0xbf9dcd0b	-1.2328199
236	0xc05e072c	-3.4691877
237	0xbdf8ec5d	-0.12154458
238	0xc01a187b	-2.4077442
239	0xc0414afe	-3.0202022
240	0x3f7e2a97	0.99283737
241	0xbf079fb6	-0.52978075
242	0xc0a40446	-5.1255217
243	0x3bb08818	0.0053873174
244	0xc0568a66	-3.3521972
245	0xc0667fa9	-3.6015418
246	0x40351667	2.8294923
247	0xc01b9498	-2.4309444
248	0xc0df20c5	-6.97275
249	0xbd38b571	-0.04509491
250	0xc0be7880	-5.9522095
251	0xc0d0cd2c	-6.5250454
252	0x40246883	2.568879
253	0xc0722542	-3.783524
254	0xc0d51082	-6.658265
255	0x3de02adf	0.10945677

gconv1.lin_l.bias f4 [300]
0	0xc09a270c	-4.8172665
1	0xbf3e2681	-0.742775
2	0xc081b5fb	-4.0534644
3	0xc04d908e	-3.211948
4	0xc0952b39	-4.661526
5	0xc07dbfe8	-3.964838
6	0xc04fd2d4	-3.247243
7	0xc0ad4af3	-5.415399
8	0xc08fcca9	-4.493733
9	0xc02f0408	-2.734621
10	0xc0a4a5cb	-5.1452384
11	0xc0a568e3	-5.1690536
12	0xc08ce179	-4.4025235
13	0xc0bda95f	-5.926925
14	0xc01a6d07	-2.4129045
15	0xc03ec9ac	-2.981059
16	0xc0da4318	-6.82069
17	0xc0859a43	-4.175081
18	0xbf058924	-0.52162385
19	0xbea6c321	-0.32570747
20	0xc0f84936	-7.758937
21	0xc0c08571	-6.016289
22	0xc0814ca6	-4.0406065
23	0xc09471cb	-4.6388907
24	0xc0d82e45	-6.755648
25	0xc0c88672	-6.266412
26	0xbff8caf3	-1.9436935
27	0xc0e3d9ec	-7.120352
28	0xbf6b7e45	-0.91989547
29	0xc0f76f57	-7.7323413
30	0xbfc274b7	-1.5191869
31	0xc09fcb78	-4.9935875
32	0xc10be731	-8.743943
33	0xc05ec48a	-3.4807458
34	0xc0a046af	-5.0086284
35	0xc0ee0a75	-7.4387765
36	0xc08f55dc	-4.479231
37	0xc0d7f9a7	-6.749225
38	0xc07f42f9	-3.9884627
39	0xc0896269	-4.293263
40	0xc08fc4bd	-4.492766
41	0xc0f71cef	-7.722282
42	0xc0d6f17f	-6.7169795
43	0xbfefc7f8	-1.8732901
44	0xbfd4bc49	-1.661996
45	0xbf4258dc	-0.7591684
46	0xc0524036	-3.2851691
47	0xc08fba0d	-4.4914613
48	0xbf63a839	-0.8892856
49	0xc005d6ed	-2.091243
50	0xc01ef2ca	-2.4835687
51	0xc045a4d0	-3.0881844
52	0xc112be98	-9.171532
53	0xc09453e0	-4.6352386
54	0xbf2b2b6b	-0.66863126
55	0xc0d5d1db	-6.681867
56	0xc102f48e	-8.184706
57	0xc0b78a14	-5.7356052
58	0xc096a863	-4.708055
59	0xc084219e	-4.1291037
60	0xc0d768c0	-6.731537
61	0xc0ae9987	-5.456241
62	0xc0d6299a	-6.6925783
63	0xbf941894	-1.1570001
64	0xbf8b5ff9	-1.0888664
65	0xc0293299	-2.6437132
66	0xc0d335c5	-6.6003137
67	0xbec31bd4	-0.3810717
68	0xc0b8188b	-5.752996
69	0xc0c27daa	-6.07784
70	0xc03898b6	-2.8843207
71	0xbed2787a	-0.4110754
72	0xc08be3e8	-4.3715706
73	0xc0ab8ef0	-5.3611984
74	0xc019e465	-2.404565
75	0xc06e5992	-3.724217
76	0xbff57334	-1.9175782
77	0xc0d2bf26	-6.5858335
78	0xc093b609	-4.615971
79	0xc08ee238	-4.4651146
80	0xbff00f3f	-1.8754653
81	0xc09e924b	-4.955358
82	0xc052ef52	-3.295857
83	0xc0fa973e	-7.830962
84	0xc0d61ece	-6.6912603
85	0xc031dbec	-2.779048
86	0xc08fd2a5	-4.4944634
87	0xc08b3049	-4.349644
88	0xc0ab003b	-5.343778
89	0xc0916a0c	-4.544195
90	0xc0a198b8	-5.0498924
91	0xc05bdd00	-3.4353638
92	0xc0c67a1e	-6.202407
93	0xc0b738cf	-5.7256846
94	0xc063fd09	-3.562319
95	0xc09659ae	-4.698447
96	0xc051faaf	-3.2809255
97	0xc1120796	-9.126852
98	0xc01dc2d7	-2.465017
99	0xc0c581b7	-6.1720843
100	0xc0df9989	-6.987492
101	0xc0cfc14b	-6.4923453
102	0xc079ade7	-3.9012392
103	0xbfc1e92b	-1.5149282
104	0xbeef8d47	-0.46787474
105	0xc0343f8c	-2.8163786
106	0xc0e86726	-7.2625914
107	0xc0772d1a	-3.8621278
108	0xc1110b4e	-9.06526
109	0xc0a2d138	-5.0880394
110	0xc0de7b7c	-6.952574
111	0xc02098da	-2.5093293
112	0xc08a0176	-4.3126783
113	0xc0c3100c	-6.095709
114	0xc0aacc06	-5.337405
115	0xc0a96fa3	-5.2948775
116	0xc0dfbe59	-6.991986
117	0xbea4bb23	-0.32174024
118	0xc0946f1b	-4.6385627
119	0xc0cda692	-6.4265833
120	0xc0003675	-2.0033238
121	0xc0355b95	-2.8337147
122	0xbf806626	-1.0031173
123	0xc0dd82db	-6.9222236
124	0xc05a63fe	-3.412353
125	0xc05bc916	-3.4341483
126	0xbf09a3d6	-0.5376562
127	0xc0d4f5db	-6.6550117
128	0xc0e5396e	-7.1632605
129	0xc0dcbef5	-6.89831
130	0xc0582412	-3.3772016
131	0xbffafb0f	-1.9607867
132	0xc0891f7c	-4.2850933
133	0xc09cd012	-4.900399
134	0xc027106c	-2.6103773
135	0xbff33541	-1.9000627
136	0xc10666c0	-8.400085
137	0xc032bc7e	-2.7927547
138	0xc0a040a5	-5.007891
139	0xc08c3878	-4.381893
140	0xc0b083cb	-5.516088
141	0xbf8b4eba	-1.08834
142	0xc0bc11ed	-5.877188
143	0xc0d252a8	-6.57259
144	0xc0d351ac	-6.6037197
145	0xc0c55b3d	-6.1673875
146	0xbf228238	-0.6347995
147	0xc043e58e	-3.060886
148	0xc0562b5c	-3.3463964
149	0xc0240737	-2.5629404
150	0xc013662b	-2.3031108
151	0xc0ad64b7	-5.4185443
152	0xc091e63d	-4.5593553
153	0xc0175087	-2.36429
154	0xc0948f27	-4.6424747
155	0xc022b820	-2.542488
156	0xc02baa31	-2.6822627
157	0xc0df0521	-6.969376
158	0xc04ac276	-3.168119
159	0xc1002eb0	-8.011398
160	0xc0b42274	-5.6292057
161	0xc0349576	-2.8216224
162	0xc0dd813b	-6.922025
163	0xc0cc2d06	-6.380496
164	0xc09bb025	-4.865252
165	0xc0869e7b	-4.2068458
166	0xc019509a	-2.3955445
167	0xc09d2b2f	-4.9115214
168	0xc0dc6154	-6.886881
169	0xc0e032c1	-7.0061955
170	0xc01f0dbd	-2.4852135
171	0xc0d1c5b2	-6.5553827
172	0xbfc74dc9	-1.5570613
173	0xc0769955	-3.8531086
174	0xc0c3172b	-6.096578
175	0xc00b8278	-2.1798382
176	0xbf819176	-1.0122516
177	0xc013f0f8	-2.3115826
178	0xc0df4ebd	-6.9783616
179	0xc10373af	-8.215743
180	0xc0abb5b6	-5.3659315
181	0xc0ba6a19	-5.8254514
182	0xc03a59f7	-2.911741
183	0xc0a841c4	-5.258028
184	0xc024849f	-2.5705945
185	0xc0acbad3	-5.3978057
186	0xbff8193e	-1.9382703
187	0xc0e1540c	-7.0415096
188	0xc0761df1	-3.8455775
189	0xc00d6186	-2.2090774
190	0xc0853f10	-4.163948
191	0xc06d180c	-3.7045927
192	0xc0b4a044	-5.6445637
193	0xc0fb2791	-7.84858
194	0xc11b61aa	-9.711344
195	0xc04354a1	-3.0520403
196	0xc094fbc8	-4.655735
197	0xc0175374	-2.3644686
198	0xc03d5000	-2.9580078
199	0xc0e0c699	-7.024243
200	0xc0be965b	-5.955854
201	0xc0ae5c82	-5.4487925
202	0xbf28e7f6	-0.65978944
203	0xc092f3d6	-4.592265
204	0xc0630168	-3.5469608
205	0xc04585b1	-3.0862849
206	0xc07e1e44	-3.9705973
207	0xc015f228	-2.342905
208	0xc10f75af	-8.966231
209	0xc0574bac	-3.3639936
210	0xc02084b9	-2.5081007
211	0xc0f043bc	-7.5082684
212	0xc0a7ac2f	-5.2397685
213	0xc0b66ed0	-5.701027
214	0xc0df28b0	-6.9737167
215	0xbfe58c15	-1.7933375
216	0xc03439f2	-2.8160367
217	0xc108cb46	-8.549627
218	0xc0e2ea25	-7.091082
219	0xc0bb86ea	-5.860219
220	0xc066008d	-3.5937836
221	0xc0cdf128	-6.435688
222	0xc0250511	-2.5784342
223	0xc0b3799f	-5.6085963
224	0xbf5d4018	-0.86425924
225	0xc0989579	-4.768246
226	0xc08e6d94	-4.450876
227	0xc0d9fcf8	-6.81213
228	0xc0d43eda	-6.6326723
229	0xc06e8e6f	-3.7274435
230	0xc021ba25	-2.5269864
231	0xc0b4c4fa	-5.649045
232	0xc0c5532a	-6.166402
233	0xc0d780df	-6.7344813
234	0xc0436c0d	-3.05347
235	0xc01cf6ce	-2.4525638
236	0xc09e86b5	-4.9539437
237	0xc0ccf1f2	-6.4045343
238	0xc0975fef	-4.7304606
239	0xc04b8239	-3.1798232
240	0xc0e49e0c	-7.144293
241	0xc0e61494	-7.190012
242	0xc00c4cd5	-2.1921895
243	0xc0fae90c	-7.840948
244	0xc09097d5	-4.518534
245	0xc100c59c	-8.048244
246	0xbf4c7308	-0.79863024
247	0xc0b5f280	-5.685852
248	0xc06d092f	-3.7036855
249	0xc0aea4ac	-5.4576015
250	0xbef74e45	-0.48301902
251	0xc00a1d5c	-2.158042
252	0xc03b4776	-2.9262366
253	0xc0b67d52	-5.702798
254	0xc0d10d1c	-6.5328503
255	0xc0630858	-3.5473843

gconv1.lin_r.weight f4 [300, 6]
0	0x40093410	2.1438026
1	0xbfc08d96	-1.5043209
2	0xc0b67d27	-5.7027774
3	0xbd8b235b	-0.06793853
4	0xc07caaff	-3.9479368
5	0xc099614d	-4.7931275
6	0x3e9849fd	0.2974395
7	0x3ca5b146	0.020226132
8	0xbed05ed9	-0.40697363
9	0x3bc963fd	0.0061459527
10	0xbe1d916c	-0.15387505
11	0xbe957dea	-0.29197627
12	0x3eda2aa4	0.42610657
13	0xbe6a64dc	-0.22890037
14	0xc06e4245	-3.7227948
15	0xbd3c0761	-0.045905475
16	0xc00f933a	-2.243361
17	0xc02be941	-2.6861117
18	0x3ec84195	0.39112535
19	0xbed1119f	-0.40833756
20	0xc07a04ff	-3.906555
21	0xbd01fc0d	-0.031734515
22	0xc006e995	-2.1080067
23	0xc0276844	-2.6157389
24	0x3fa7fe99	1.3124572
25	0xc00f7d70	-2.242031
26	0xc07b379e	-3.9252696
27	0xbce47d11	-0.027891668
28	0xc060aa37	-3.510389
29	0xc03f4f1e	-2.989204
30	0x3fb13cce	1.3846681
31	0xbf3d050a	-0.73835814
32	0xc05d1b14	-3.4547777
33	0xbda70937	-0.081560545
34	0xc0553ece	-3.3319583
35	0xc05fa03a	-3.4941545
36	0x3e8bbfb7	0.27294704
37	0xbf017c13	-0.5057995
38	0xc03c9b10	-2.9469643
39	0xbcce8815	-0.025211373
40	0xc0690799	-3.6410887
41	0xc0289823	-2.6342857
42	0x4006f34f	2.1086004
43	0xbfd04fc0	-1.6274338
44	0xc0977c2c	-4.7339077
45	0xbcded62b	-0.027201733
46	0xc07fa047	-3.9941576
47	0xc0b6f570	-5.7174606
48	0x3fe444e3	1.7833523
49	0xbf4fab1f	-0.81120485
50	0xc050c572	-3.262051
51	0xbd81444b	-0.06311854
52	0xc0708b13	-3.7584884
53	0xc06a7ad3	-3.6637466
54	0x3f79ce56	0.9758047
55	0xbfba8079	-1.4570457
56	0xc027d5c5	-2.6224225
57	0xbb88d2ba	-0.004175511
58	0xbfed3682	-1.853226
59	0xbff09d37	-1.8797978
60	0x3fd0ea5c	1.6321521
61	0xbf2a4518	-0.6651168
62	0xc0aebcb0	-5.460533
63	0xbc8a2df7	-0.01686762
64	0xc082a1bd	-4.0822434
65	0xc0b4f1d1	-5.6545186
66	0x3fda8397	1.7071408
67	0xbfb942d0	-1.4473515
68	0xc0a092db	-5.0179267
69	0xbd650301	-0.055911068
70	0xc09b4b8d	-4.8529725
71	0xc05fbc89	-3.4958823
72	0x3f8cd7d3	1.1003364
73	0xbf08fb2f	-0.53508276
74	0xc08a65dc	-4.324934
75	0xbd668c4a	-0.056286134
76	0xc058f623	-3.390023
77	0xc081a667	-4.051563
78	0x402e9f45	2.728471
79	0xbffbf99c	-1.968555
80	0xc0a259c9	-5.07346
81	0xbdb67435	-0.089088835
82	0xc0bcbba2	-5.8979044
83	0xc08c9898	-4.393627
84	0x3f370222	0.7148763
85	0x3ed9a9ef	0.42512462
86	0xbff73837	-1.931403
87	0xbd0af670	-0.033926427
88	0xbfc56032	-1.5419981
89	0xbff3cd32	-1.9046996
90	0x3fb94f5e	1.4477346
91	0xbec5d80e	-0.386414
92	0xc02d0c4d	-2.7038758
93	0x3c2ddd02	0.010611774
94	0xc06fbdd1	-3.7459605
95	0xc062e1fa	-3.5450425
96	0x3f5af1b4	0.8552506
97	0xc07933da	-3.8937898
98	0xc0a6dc8d	-5.2144227
99	0xbda985a5	-0.08277444
100	0xc089950a	-4.2994432
101	0xc099c1c4	-4.804903
102	0x3ff6488f	1.9240893
103	0xbf9c2b65	-1.2200743
104	0xc089e2a2	-4.308915
105	0xbd73f8ad	-0.059563328
106	0xc00b56c7	-2.1771715
107	0xc05d3f4f	-3.456989
108	0xbd209e67	-0.039213564
109	0xbcc6dd11	-0.024275335
110	0xbecab920	-0.39594364
111	0x3aef9cd0	0.0018280987
112	0xbe84587b	-0.25848755
113	0x3dc18538	0.094492376
114	0xbd5d85e6	-0.054082774
115	0x3e086e04	0.13323218
116	0xbf0953a6	-0.5364326
117	0xbbb3cbed	-0.0054869563
118	0xbf63c7bb	-0.8897664
119	0xbed819b6	-0.42207116
120	0x40a07376	5.0140944
121	0xc022acc0	-2.5417938
122	0xc0f4b223	-7.646745
123	0xbe49bdf5	-0.19701369
124	0xc0a6958b	-5.2057548
125	0xc0c62e5c	-6.193159
126	0x4009ea98	2.1549435
127	0xbfc7aa65	-1.5598875
128	0xc0c28a2c	-6.0793667
129	0xbd98d020	-0.07461572
130	0xc08d9a8d	-4.425116
131	0xc0c3a4fa	-6.1138887
132	0x4033e857	2.811056
133	0xbfdc85c3	-1.7228321
134	0xc07b98d7	-3.9312036
135	0xbcea075f	-0.028567968
136	0xc0515f26	-3.2714324
137	0xc0999661	-4.799607
138	0x3f97a414	1.1846948
139	0xc01aa5c8	-2.4163685
140	0xc0909724	-4.51845
141	0xbdb044b9	-0.08606858
142	0xc09840b1	-4.757897
143	0xc0838508	-4.109989
144	0x3f9eb592	1.2399161
145	0xc05611de	-3.3448405
146	0xc0c3a02c	-6.113302
147	0xbca71694	-0.020396508
148	0xc0840261	-4.1252904
149	0xc0a4f51b	-5.15492
150	0x3f05a6a1	0.5220738
151	0xc01d9718	-2.462347
152	0xc09b312b	-4.849752
153	0x3d5b36fd	0.053519238
154	0xc0a5a368	-5.176197
155	0xc09352c4	-4.603853
156	0x3e4556bd	0.1927137
157	0x3ebdca2d	0.3706831
158	0xbfc3474d	-1.5256134
159	0xbb92d880	-0.004481375
160	0xbfa7321a	-1.3062165
161	0xbf0c15c8	-0.54720736
162	0x408ad3a1	4.3383336
163	0xc031a65a	-2.7757783
164	0xc0d05190	-6.5099564
165	0xbdc0f379	-0.09421439
166	0xc09804e6	-4.750598
167	0xc0a98957	-5.298015
168	0x3de833bc	0.113379925
169	0x3b98362a	0.0046451287
170	0xbf9c640e	-1.2218034
171	0x3bf1f38d	0.00738377
172	0xbf8406a1	-1.0314523
173	0xbf856814	-1.0422387
174	0x4052959c	3.2903814
175	0xc04a7ab0	-3.1637383
176	0xc10f0829	-8.939492
177	0xbcea0115	-0.02856497
178	0xc09f3856	-4.975627
179	0xc101d3e4	-8.114231
180	0x3f26e03d	0.6518591
181	0x3f4f4e7f	0.8097915
182	0xbfb92ac1	-1.4466172
183	0xbb31da4f	-0.0027138179
184	0xbf9d8594	-1.230639
185	0xbf904e8e	-1.1273973
186	0xbdb183ce	-0.08667718
187	0xbfd3699c	-1.6516604
188	0xc08fb936	-4.4913588
189	0xba89f8a6	-0.0010526374
190	0xc06a4302	-3.6603398
191	0xc09e3103	-4.943483
192	0x40ae62f2	5.4495783
193	0xc07aa13b	-3.9160907
194	0xc10d982a	-8.849649
195	0xbe07fa1b	-0.13279001
196	0xc0e64a12	-7.196542
197	0xc0debff3	-6.9609313
198	0x3fdee8b2	1.7414763
199	0xbf6e5a96	-0.93106973
200	0xc03200ee	-2.7813067
201	0x3c54c66b	0.01298676
202	0xc0014b1a	-2.0202088
203	0xc0477082	-3.116242
204	0x40085e6d	2.1307633
205	0xbf3fac93	-0.748727
206	0xc0a2482a	-5.071309
207	0xbd77b2aa	-0.06047312
208	0xc08b031a	-4.3441286
209	0xc05ddfb9	-3.46678
210	0x3fa4e8e3	1.2883571
211	0xc0698033	-3.6484497
212	0xc0da4e42	-6.822053
213	0xbd9969c3	-0.074908756
214	0xc0ad75ea	-5.420644
215	0xc0a59e68	-5.1755867
216	0x3fab47a1	1.3381234
217	0xbf4f6eca	-0.81028426
218	0xc08302fb	-4.094114
219	0xbcf1fecc	-0.029540442
220	0xc028784f	-2.632343
221	0xc0622c1f	-3.533943
222	0x403e9261	2.9776843
223	0xc01dfe33	-2.46864
224	0xc0be9406	-5.9555693
225	0x3b8f07f7	0.004364963
226	0xc0bbeb4f	-5.872474
227	0xc0c1c6ab	-6.0555015
228	0x3ff24084	1.8925939
229	0xbf8639d2	-1.0486395
230	0xc095ab24	-4.677141
231	0xbcdb45bb	-0.026766649
232	0xc03d3c6c	-2.9568129
233	0xc044b65f	-3.073631
234	0x3f238e92	0.6388942
235	0xbfcc3026	-1.5952194
236	0xc067f19a	-3.6241212
237	0x3e0bdcfe	0.1365852
238	0xc0483c25	-3.128671
239	0xc0512be7	-3.2683046
240	0x3fad642d	1.3546196
241	0xbe98289d	-0.29718485
242	0xc08a3928	-4.319477
243	0xbc0f8f94	-0.008762259
244	0xc058e773	-3.3891265
245	0xc0407c39	-3.007582
246	0x403ccab3	2.9498718
247	0xc0083d63	-2.1287467
248	0xc0cbdd79	-6.370785
249	0x3cf58860	0.029972255
250	0xc0bb676e	-5.8563757
251	0xc0c0f6cc	-6.0301266
252	0x40203b20	2.5036087
253	0xc0705858	-3.755392
254	0xc0d646f1	-6.69616
255	0xbd3f3b28	-0.046687275

gconv2.lin_l.weight f4 [300, 300]
0	0xbf1bca40	-0.60855484
1	0xbcfe378c	-0.031032346
2	0xbe875d8f	-0.26438567
3	0xbe2b3b91	-0.16721942
4	0x3ce86d9b	0.028372576
5	0xbc5f3e6d	-0.013625723
6	0xbf3bb34d	-0.73320466
7	0xbda85f90	-0.08221352
8	0x3ea0e1da	0.3142231
9	0xbd4b10ca	-0.04957656
10	0x3eb0a973	0.3450428
11	0xbfd088f6	-1.6291797
12	0x3cd47bcb	0.025937935
13	0xbd00e86e	-0.031471662
14	0x3e73de5f	0.23815297
15	0xbe3b08ef	-0.18265127
16	0xbf1d4f1e	-0.6144885
17	0xbf906021	-1.1279336
18	0xbb17984a	-0.0023131543
19	0xbe509808	-0.20370495
20	0x3e084ed3	0.13311319
21	0xbdd1e7d3	-0.10249295
22	0xbf7da1da	-0.9907509
23	0x3d9365c7	0.07197147
24	0x3fcf61d3	1.6201729
25	0x3ee7c947	0.4527075
26	0x3e25882e	0.1616523
27	0xbf8ac267	-1.0840577
28	0xbe42fa5c	-0.19040817
29	0x3f36acf5	0.7135766
30	0xbe581a36	-0.21103749
31	0x3e2fcb1b	0.17167322
32	0xbeab86fb	-0.3350142
33	0x3d95619f	0.0729401
34	0xbec8b7ba	-0.39202672
35	0xbe8e2018	-0.2775886
36	0xbf449a3e	-0.76797855
37	0x3e91d343	0.28481492
38	0x3e28e86c	0.16494912
39	0x3e7fd477	0.24983393
40	0x3ebed027	0.37268183
41	0x3ede68a3	0.43439206
42	0xbe7e83d1	-0.24854971
43	0x3eb1c33d	0.34719267
44	0xbc9a8063	-0.018860048
45	0x3ddba6d1	0.10725177
46	0xbefeacb7	-0.49741146
47	0x3fa5a71e	1.2941625
48	0xbe0a39d9	-0.1349863
49	0x3e94e570	0.29081297
50	0xbdadb1e4	-0.084811956
51	0x3eadc3b9	0.33938387
52	0x3e58db9a	0.21177521
53	0xbf34e4c9	-0.706616
54	0xbc809b6b	-0.015699109
55	0x3f88acfa	1.0677788
56	0xbe2cb4e7	-0.16865884
57	0xbf604bf4	-0.87615895
58	0xbf28c5b9	-0.659267
59	0x3f077a6d	0.5292118
60	0xbf8b909c	-1.0903506
61	0xbfa49b6f	-1.2859935
62	0x3f1938bb	0.5985219
63	0xbd4ed91e	-0.050500028
64	0x3d6cc109	0.05780128
65	0xbfb09b14	-1.3797326
66	0x3e517f78	0.20458782
67	0x3d8399bd	0.064258076
68	0x3f1e7458	0.61896276
69	0xbee25869	-0.44208077
70	0xbdb28ec3	-0.08718636
71	0xbbba1838	-0.0056791566
72	0x3e40cbec	0.1882779
73	0x3f52adc5	0.822964
74	0x3cb4dd20	0.022078097
75	0xbec98ea1	-0.3936663
76	0xbe10284c	-0.14077872
77	0x3e9aaacc	0.30208433
78	0xbf13a44a	-0.5767256
79	0xbfba8794	-1.4572625
80	0xbd3c20af	-0.045929607
81	0x3f29e061	0.66358
82	0xbe9666c3	-0.29375276
83	0xbee85d16	-0.4538352
84	0xbfb6b2b2	-1.4273283
85	0x3c8a32ec	0.016869985
86	0x3f957d2c	1.1678824
87	0xbf8f57d9	-1.1198684
88	0xbe83fb7d	-0.25777808
89	0xbf477e37	-0.77926964
90	0xbe3f7c3a	-0.18699732
91	0x3e3f4771	0.18679596
92	0x3ece8d19	0.40342024
93	0x3bb24e59	0.0054414687
94	0xbe8861b7	-0.2663705
95	0x3eec8a3a	0.46199208
96	0x3e3f4c7c	0.1868152
97	0x3ea1f945	0.3163549
98	0xbed9e1ab	-0.42554983
99	0xbf907a12	-1.1287253
100	0xbf2497be	-0.6429404
101	0x3defa7ce	0.11701928
102	0x3e2184c5	0.15773304
103	0xbe8aae6d	-0.270862
104	0x3d0cf4e2	0.034413226
105	0xbd31fc3f	-0.04345345
106	0xbdf72ca5	-0.12069062
107	0xbcd9fd97	-0.026610179
108	0xbe387729	-0.18014206
109	0xbea5f1f2	-0.32411152
110	0xbe4207f0	-0.1894834
111	0xbe548a07	-0.20755778
112	0x3f004f3b	0.50120896
113	0x3f0116d2	0.50425446
114	0x3f744e81	0.9543229
115	0x3ed3a704	0.4133836
116	0xbf397f13	-0.72459525
117	0xbd8d7658	-0.06907338
118	0x3ea2b647	0.31779692
119	0xbf34d139	-0.7063175
120	0x3befc011	0.0073165973
121	0x3eb98078	0.36230826
122	0xbc9f6cb9	-0.019461023
123	0xbeec93bf	-0.4620647
124	0x3e413622	0.18868306
125	0x3d87f279	0.06638045
126	0xbe6c6eaf	-0.23089097
127	0xbe2bee52	-0.1679013
128	0x3cf75cfd	0.030195707
129	0xbd21938c	-0.039447352
130	0xbdd91f3f	-0.10601663
131	0xbeac775b	-0.3368481
132	0x3f58f948	0.84755373
133	0x3e8189f7	0.2530057
134	0x3f2a5d28	0.66548395
135	0x3db02587	0.08600908
136	0xbfaaf9b1	-1.335745
137	0xbeb6cc74	-0.3570286
138	0xbd16cb19	-0.036814783
139	0xbe321ef2	-0.17394617
140	0x3ecd1c22	0.40060526
141	0xbd2ad449	-0.041706357
142	0x3f04d313	0.51884574
143	0x3f4efb6d	0.80852395
144	0xbea87bd1	-0.32906964
145	0xbf155e93	-0.58347434
146	0x3cf45127	0.029823853
147	0xbdafe245	-0.08588079
148	0x3e4eae09	0.20183577
149	0xbd80bd3b	-0.06286093
150	0x3f3d9a51	0.74063593
151	0xbe9efeb8	-0.3105371
152	0x3ee105ed	0.43949834
153	0x3e2e2cdd	0.17009301
154	0x3dd76ac0	0.10518408
155	0xbe543d65	-0.20726545
156	0xbca01b37	-0.019544227
157	0xbec7b9e6	-0.39009017
158	0x3ecc73eb	0.39932188
159	0xbede0438	-0.43362594
160	0x3f839dd9	1.0282546
161	0x3e9809a2	0.2969485
162	0xbf67a0c1	-0.90479666
163	0xbf35f550	-0.7107744
164	0xbd7a320c	-0.061082885
165	0x3e8af469	0.27139595
166	0xbe06d1cf	-0.13165973
167	0x3e47eecf	0.19524692
168	0xbf13efaf	-0.57787603
169	0xbeb787ac	-0.35845697
170	0xbe071c29	-0.13194336
171	0x3f17eb0c	0.5934303
172	0xbd5fca7f	-0.054636475
173	0x3d3c26a1	0.045935277
174	0x3e99abb5	0.30013815
175	0x3e4bfad6	0.19919905
176	0xbd33790e	-0.04381662
177	0x3e664f05	0.22491081
178	0xbd06e7f0	-0.032936037
179	0x3fd54a96	1.6663387
180	0xbf88a97a	-1.067672
181	0x3e2c3381	0.16816522
182	0x3d8c1e9a	0.06841774
183	0x3f0b967f	0.54526514
184	0xbe8cd24f	-0.27504203
185	0x3e173dad	0.14769621
186	0xbeb241d9	-0.34815863
187	0xbee4ef49	-0.4471381
188	0xbeb125ac	-0.34599054
189	0xbe705e41	-0.23473455
190	0xbeb0d267	-0.34535524
191	0x3e12622d	0.14295264
192	0x3ecd2762	0.4006911
193	0xbf6b3615	-0.918794
194	0x3f21535a	0.6301781
195	0xbd0bd5a2	-0.034139283
196	0xbf1f2547	-0.62166256
197	0xbeea032c	-0.45705545
198	0x3d9bc054	0.07605043
199	0xbf514b4a	-0.81755507
200	0xbf19caf9	-0.60075337
201	0xbe663ab8	-0.22483337
202	0xbc86d7a7	-0.016460253
203	0xbe9aabd2	-0.30209213
204	0x3e792672	0.24331072
205	0x3f33f56b	0.70296353
206	0x3f0407eb	0.5157458
207	0x3f144ebf	0.57932657
208	0xbf211bea	-0.6293322
209	0x3e3358e1	0.17514373
210	0xbf118b42	-0.56853116
211	0xbd4cbfbf	-0.04998755
212	0xbe0d65dc	-0.13808388
213	0xbfbee4d7	-1.4913586
214	0x3d3b9886	0.045799755
215	0x3f1804e9	0.5938249
216	0x3e4c9bed	0.19981356
217	0xbe82321d	-0.25428858
218	0xbe5fff06	-0.21874627
219	0x3f8ddf4e	1.1083772
220	0x3e75299e	0.23941657
221	0x3e5f3cf5	0.21800597
222	0x3dbbac3c	0.091637105
223	0xbdedefd6	-0.11618011
224	0x3e3230a4	0.17401367
225	0xbefb3037	-0.49060223
226	0x3f405a1c	0.75137496
227	0x3f5523f2	0.83257973
228	0xbed58ed7	-0.4171054
229	0x3f2d65d7	0.6773352
230	0xbeeb870c	-0.4600147
231	0xbe292b05	-0.16520317
232	0x3fa43795	1.2829462
233	0xbda9bee8	-0.082883656
234	0x3dae0cc7	0.08498531
235	0x3e9c0838	0.3047502
236	0xbf452ea3	-0.77024287
237	0xbe035e5a	-0.12828961
238	0x3e06cd7e	0.13164327
239	0x3e39e67d	0.1815433
240	0xbf9984b3	-1.1993622
241	0xbf38344c	-0.719548
242	0xbe42cd47	-0.1902362
243	0xbf573693	-0.8406765
244	0x3ea30bfc	0.3184508
245	0x3ee2ddcf	0.44309852
246	0xbae97121	-0.0017810204
247	0x3f67a59f	0.9048709
248	0xbeef54e9	-0.4674447
249	0x3dba812f	0.09106671
250	0x3e0c3921	0.13693668
251	0x3e015a46	0.12632093
252	0xbb89fd2f	-0.00421109
253	0xbeb7dd24	-0.35910904
254	0xbf04b7d0	-0.51842976
255	0xbd4692bc	-0.04847978

gconv2.lin_l.bias f4 [300]
0	0x3c25eb99	0.010126972
1	0x3c1f22e0	0.009712905
2	0x3c43e391	0.0119561115
3	0x392bc044	0.00016379455
4	0x3c62a5c3	0.013833466
5	0xba935397	-0.0011240122
6	0x3c00fd93	0.007872957
7	0x3b887265	0.0041640275
8	0xbc18b303	-0.0093200235
9	0x3c50ce8d	0.012744558
10	0xbc7da2ba	-0.015480692
11	0xbc2989bb	-0.010347779
12	0x3ca32432	0.01991472
13	0xbb038099	-0.0020065664
14	0xbc961007	-0.01831819
15	0xbc2fa682	-0.010720851
16	0xbaffed22	-0.0019525627
17	0x3aa5b3d7	0.0012642097
18	0x3b95a4bd	0.0045667575
19	0xb9d09507	-0.00039783886
20	0x3b92585b	0.004466099
21	0xbbc45d66	-0.0059925793
22	0xbc53d02d	-0.012928051
23	0x3b203d3e	0.0024450566
24	0x3c720ec5	0.014774029
25	0xbba71a2d	-0.005099556
26	0xbca14b3d	-0.019689197
27	0xbc11ce96	-0.008899352
28	0x3b135e86	0.002248676
29	0xbc877602	-0.016535763
30	0x3c9323bf	0.017961381
31	0xbc9901be	-0.018677589
32	0xbc304ea8	-0.010760941
33	0xbb33d3d1	-0.0027439485
34	0xbc8e8448	-0.017397061
35	0xbbc086dc	-0.0058754515
36	0x3c1c304c	0.009532999
37	0x3bb3b6a1	0.0054844175
38	0xbc27a75d	-0.010232774
39	0xbc370cbe	-0.011172472
40	0xbc7de232	-0.015495824
41	0x3bba161f	0.0056789066
42	0x3bfde420	0.007748142
43	0xbbde895c	-0.006791277
44	0x3c97e168	0.0185401
45	0xbb47608d	-0.003042254
46	0xbcb7fd11	-0.022459539
47	0x3b854678	0.0040672384
48	0x3c23078d	0.009950531
49	0x3b0d2c0c	0.0021541147
50	0xbbca90e2	-0.006181822
51	0x3c69dab1	0.0142733315
52	0xbb843811	-0.004035004
53	0xbc0105ad	-0.007874888
54	0x3b8330f5	0.004003639
55	0xbbb82665	-0.0056198114
56	0x3aabdfa9	0.001311292
57	0xbc20ce7b	-0.009814854
58	0x3a61d2f3	0.0008614503
59	0xbc237a2a	-0.009977857
60	0x3c618974	0.013765682
61	0xba072819	-0.00051558163
62	0xbb8e592a	-0.0043441253
63	0x3bcc447d	0.0062337504
64	0xbab4025a	-0.0013733611
65	0xba924686	-0.0011159934
66	0x3c3f585b	0.01167878
67	0x3bc2406b	0.0059280894
68	0xbc3eb1c8	-0.011639066
69	0x3c4090f3	0.011753309
70	0x3b7b50df	0.0038347763
71	0xbbd4583d	-0.0064802454
72	0x3c0d51ad	0.00862543
73	0xbaebaeed	-0.0017981209
74	0x3c0f26bd	0.008737263
75	0xbc8c3aa8	-0.017117813
76	0xbcd71ebb	-0.02625977
77	0x3be62a13	0.0070240586
78	0x3c182ab0	0.009287521
79	0xbbd902a7	-0.0066226306
80	0xbbf03c2c	-0.007331392
81	0xbcb9d439	-0.022684203
82	0x3a8dc95c	0.0010817456
83	0x3a9d91d2	0.0012021607
84	0x3a944332	0.001131153
85	0xbaf0b7b2	-0.0018365292
86	0xba84e2ae	-0.0010138357
87	0xba10b24a	-0.0005519731
88	0x3b7d8f80	0.003869027
89	0xbc9eb988	-0.019375578
90	0x3b87486c	0.0041285064
91	0x3ba7a4ff	0.0051161046
92	0xbb85b8b0	-0.0040808544
93	0xbb4d3a28	-0.0031315181
94	0x3bf841dc	0.0075762104
95	0xbc15014b	-0.009094547
96	0x3a9adbda	0.0011814788
97	0xbc7a11ef	-0.015263065
98	0xbc2dc2ff	-0.010605573
99	0x3b7da555	0.0038703282
100	0x3c999062	0.018745605
101	0xb908ade6	-0.00013034753
102	0xbb39b41e	-0.0028336118
103	0x3b395546	0.0028279587
104	0xbba779bf	-0.005110949
105	0x3c7e8a7b	0.015535946
106	0x3c6bda73	0.014395344
107	0xba7a628f	-0.00095514295
108	0xbbc5eec4	-0.006040426
109	0x3b76b1cb	0.0037642594
110	0xbc006013	-0.007835406
111	0xbc6ea71a	-0.014566207
112	0xbc0c7cbd	-0.008574662
113	0xbc3dd519	-0.011586451
114	0x3c46220e	0.01209308
115	0x3c7bcd18	0.015368722
116	0xbce243b8	-0.027620181
117	0x3c94f00c	0.01818087
118	0x3bc9a69f	0.006153896
119	0x3c099475	0.008397211
120	0xba3ec938	-0.0007277909
121	0xbab4896d	-0.0013773866
122	0xbb17bc4f	-0.0023153012
123	0xbbc3f3fe	-0.005980014
124	0x3bd05b00	0.0063585043
125	0xbc17ffb3	-0.009277272
126	0xbb16f9da	-0.0023037107
127	0xbaa4d2f9	-0.0012575082
128	0xbb8b29d9	-0.004246932
129	0xbc5a4445	-0.013321941
130	0xbc9dd572	-0.019266818
131	0xbb716d15	-0.00368387
132	0x3b9cbe9c	0.0047834646
133	0xbcca8540	-0.024721742
134	0xbb00da59	-0.0019661395
135	0xbc9320c0	-0.017959952
136	0x3acadc7c	0.0015477086
137	0x3aa30338	0.0012436872
138	0x3b1d3259	0.0023986308
139	0x3b829a89	0.003985707
140	0xbc89d850	-0.016826779
141	0xbb3db856	-0.0028948984
142	0x3c812b5f	0.015767751
143	0xb9a42aec	-0.00031312497
144	0x3b80c27a	0.0039294334
145	0x3baee16a	0.00533693
146	0xbc23a38a	-0.009987721
147	0x39714663	0.00023009772
148	0xbba83956	-0.005133788
149	0xba40376c	-0.0007332477
150	0xbb80c6fc	-0.003929971
151	0xbb19cafe	-0.002346694
152	0xbba8b44c	-0.005148446
153	0xbc49a43c	-0.012307223
154	0x3beeea25	0.007291096
155	0x3c0a9bc0	0.008459985
156	0x3b81f7b1	0.0039662947
157	0xbbc66a55	-0.0060551562
158	0x3c022c23	0.007945093
159	0xb9170c75	-0.00014405123
160	0x3b74128c	0.00372425
161	0xbb6aa2e8	-0.0035802666
162	0xbbd13a30	-0.0063851103
163	0x3c7bfe68	0.015380479
164	0x3cb13d9d	0.021635825
165	0x3cf45cfb	0.029829493
166	0x3b1db5ee	0.0024064737
167	0x3b035602	0.0020040278
168	0xbc8d9c44	-0.017286427
169	0xbb983e1a	-0.004646075
170	0xbc0e619d	-0.008690265
171	0xbc4ddd49	-0.0125649655
172	0xbb8b3c64	-0.0042491425
173	0x3c15682f	0.009119078
174	0x3c165028	0.009174384
175	0xbbd8c2b7	-0.0066150087
176	0x3a6f0d25	0.0009119085
177	0x3c561d03	0.01306844
178	0x3c4e245d	0.012581912
179	0x3c13cb69	0.009020665
180	0xbac4b87c	-0.0015008594
181	0xbbf6436a	-0.0075153606
182	0x3b5af264	0.0033408636
183	0x3b606b18	0.003424352
184	0xbc04bb17	-0.008101246
185	0x3c399bdd	0.011328665
186	0x3c51be78	0.012801759
187	0x3b940b54	0.004517952
188	0xbaa50427	-0.0012589738
189	0xbd08309d	-0.033249486
190	0x3c53ae7e	0.01292002
191	0xbaf1b5c0	-0.0018441007
192	0xbaefbef9	-0.0018291167
193	0xba12d5bb	-0.00056013063
194	0x3c96a24f	0.018387942
195	0x3ad18f3e	0.0015988124
196	0xbc02bddd	-0.007979837
197	0xbcbadbac	-0.022809826
198	0xbb282da4	-0.002566197
199	0xbb04adf5	-0.0020245288
200	0xbc2c0c1e	-0.010500936
201	0x3bbd2af6	0.0057729436
202	0x3c57961c	0.013158347
203	0xbb7e2109	-0.0038777015
204	0xbbf18400	-0.007370472
205	0xbc210ca1	-0.009829671
206	0x3c11a438	0.00888925
207	0xbaa5568c	-0.0012614294
208	0xbc1abdcc	-0.009444665
209	0x3c976221	0.018479409
210	0xbc3076c1	-0.010770501
211	0x3bdc1d80	0.006717384
212	0x3c2c8462	0.010529609
213	0xbba02cef	-0.004888169
214	0xb98247ec	-0.00024849118
215	0xbc588e96	-0.013217589
216	0xbc35216d	-0.011055333
217	0xbbc7e757	-0.006100576
218	0x3bc8b690	0.006125279
219	0xbb2d590c	-0.002645078
220	0xbc334c2c	-0.010943454
221	0xbc7df5dc	-0.015500512
222	0xbbae5a35	-0.005320812
223	0xbac87936	-0.0015294913
224	0xbbcca200	-0.006244898
225	0x3c1b61e6	0.00948379
226	0x3a397c6b	0.00070757297
227	0x3c5b8ccd	0.013400269
228	0x3a698536	0.00089080946
229	0x384062f6	4.586853e-05
230	0x3c464951	0.012102441
231	0x3c80cd63	0.015722936
232	0xbc21c5c9	-0.009873816
233	0x3a7e2a1b	0.0009695605
234	0x3bfeef3d	0.0077799843
235	0xbc8a6230	-0.016892523
236	0xbb3b3765	-0.0028566953
237	0xbbdf9567	-0.00682323
238	0x3c9410da	0.018074442
239	0xbc414e44	-0.011798445
240	0x3bc343a2	0.00595899
241	0x3bf4f0af	0.007474981
242	0xb8afea9f	-8.388352e-05
243	0xbbc5fad9	-0.0060418663
244	0x3c99d6e2	0.018779222
245	0x3b89540f	0.004190929
246	0xbb5d6a9e	-0.0033785473
247	0x3c6053b5	0.013691832
248	0xbb7d4ec4	-0.0038651684
249	0x3ae554e0	0.0017496608
250	0x3bd4b45f	0.0064912285
251	0x3b27fbdd	0.00256323
252	0xbbcb04ae	-0.006195626
253	0xbc026ecf	-0.007960989
254	0x3c137e1c	0.009002235
255	0x3c3fa3ec	0.011696797

gconv2.lin_r.weight f4 [300, 300]
0	0x3f8b3c85	1.0877844
1	0x3d213380	0.039355755
2	0x3e1fc805	0.15603645
3	0xbee0ca90	-0.43904543
4	0x3f5ace4e	0.85471046
5	0x3e953127	0.29139063
6	0xbdc1ce89	-0.094632216
7	0xbec59242	-0.38588148
8	0xbf54b132	-0.8308288
9	0x3de0d8be	0.1097884
10	0x3ef6db04	0.4821397
11	0xbcaa9a6f	-0.020825593
12	0x3f3a22ed	0.7270954
13	0x3e9ee03e	0.31030458
14	0xbdf00a0e	-0.11720668
15	0xbed14002	-0.40869147
16	0xbebc6dca	-0.36802512
17	0x3d92a6ef	0.07160746
18	0xbcd39297	-0.025826735
19	0x3d78e227	0.06076255
20	0xbed8a8f8	-0.42316413
21	0xbf633793	-0.88756675
22	0x3db8b290	0.09018433
23	0x3c907769	0.017635064
24	0xbf02ef26	-0.5114616
25	0xbe076efb	-0.1322593
26	0xbd8a3832	-0.06749
27	0xbd8ab965	-0.067736425
28	0xbd21d0d8	-0.03950581
29	0x3e820b2b	0.25399145
30	0x3dee3722	0.116316095
31	0xbfaf99e1	-1.3718835
32	0xbdda1967	-0.10649376
33	0xbe8713b5	-0.26382223
34	0x3fba0057	1.4531354
35	0xbedfa1fb	-0.4367827
36	0x3c9a6fae	0.018852081
37	0x3f4ad270	0.7922735
38	0xbc37f428	-0.011227645
39	0x3f6877d4	0.90807843
40	0x3e88557e	0.26627725
41	0xbed0e0a5	-0.4079639
42	0x3e0187e5	0.12649496
43	0x3f1171bf	0.5681419
44	0xbf1df09f	-0.61695284
45	0x3cbf833c	0.023378007
46	0xbdefda99	-0.11711616
47	0x3f0774a7	0.5291237
48	0xbe139381	-0.14411737
49	0xbd846e72	-0.06466378
50	0x3e1820fb	0.14856331
51	0xbf71f6c5	-0.94517165
52	0x3f0f17e0	0.55895805
53	0x3d16cfdf	0.036819335
54	0xbd509038	-0.050918788
55	0x3f89bf0f	1.0761431
56	0xbeaa1d04	-0.33225262
57	0x3dca1cb8	0.09868759
58	0xbf516d8e	-0.8180779
59	0xbf1ac63b	-0.60458726
60	0x3f93763b	1.1520456
61	0x3e2b4e41	0.1672907
62	0xbf2fdff0	-0.68701077
63	0xbe2cf276	-0.16889367
64	0x3af2b83a	0.0018518039
65	0xbc7a829b	-0.015289928
66	0x3fa0805c	1.2539172
67	0xbd749800	-0.05971527
68	0x3f4da893	0.8033535
69	0x3f091bbf	0.5355796
70	0xbd82ff65	-0.06396369
71	0x3e05c577	0.13063608
72	0xbe4c20cb	-0.19934385
73	0x3f0cdf8e	0.5502862
74	0x3f42510d	0.75904924
75	0x3ef088a4	0.4697925
76	0xbe915ea5	-0.2839252
77	0xbf35f97e	-0.7108382
78	0xbf048886	-0.5177082
79	0x3f0d0241	0.55081564
80	0xbe6f4a96	-0.23368296
81	0x3e75d3bd	0.24006553
82	0xbf0c19bc	-0.5472677
83	0x3ee66aea	0.45003444
84	0xbe0862bb	-0.13318913
85	0xbcd71f09	-0.026259916
86	0x3c8a094b	0.016850134
87	0xc001953a	-2.024733
88	0x3eab9847	0.33514616
89	0xbf0f67b5	-0.5601762
90	0x3f87639b	1.0577272
91	0x3f3056a5	0.6888221
92	0xbe994327	-0.29934046
93	0x3f7164a2	0.9429418
94	0xbe2d21c6	-0.16907415
95	0x3f25d770	0.64781857
96	0xbe0df988	-0.1386472
97	0x3dbff921	0.093736894
98	0xbead3c44	-0.33835042
99	0xbdb72504	-0.08942607
100	0x3efd2539	0.4944246
101	0xbd46c9b4	-0.048532203
102	0x3f0ca771	0.54942995
103	0xbe517616	-0.20455202
104	0xbcbef878	-0.023311839
105	0x3e2944b7	0.16530119
106	0x3fa6c1c6	1.3027885
107	0xbf1af6fa	-0.60533106
108	0x3f1c14b8	0.60969114
109	0x3e4580e8	0.19287455
110	0x3f0c6c2c	0.5485256
111	0xbe592635	-0.21205981
112	0xbe1e2784	-0.15444762
113	0x3e477475	0.19478019
114	0xbe3bc36b	-0.18336265
115	0xbe7969cb	-0.24356763
116	0xbe2259ab	-0.15854518
117	0xbd3858eb	-0.045006674
118	0xbdc994f6	-0.09842865
119	0xbf909925	-1.1296736
120	0x3d810777	0.06300252
121	0xbde0043b	-0.10938307
122	0xbcbc771e	-0.023006018
123	0x3f964e23	1.1742595
124	0x3e12a39b	0.14320223
125	0xbea2b69f	-0.31779954
126	0x3e992d66	0.2991745
127	0xbf2ec249	-0.68265206
128	0x3f2d8f93	0.677972
129	0x3d21b2e5	0.039477248
130	0xbc94803d	-0.018127555
131	0x3db5e96b	0.088824116
132	0x3e62a4b2	0.22133139
133	0x3f87bf4c	1.0605254
134	0x3dd2a824	0.102859765
135	0xbebb47a2	-0.3657809
136	0x3f4f18eb	0.80897397
137	0xbea7ed3b	-0.3279818
138	0x3e29461a	0.16530648
139	0xbfe36459	-1.7764999
140	0x3e98b20c	0.2982334
141	0xbdb77166	-0.08957176
142	0xbf42ee2b	-0.76144665
143	0x3e1b3937	0.15158544
144	0xbf2c3528	-0.6726861
145	0x3f745404	0.954407
146	0xbd12a6c1	-0.03580356
147	0xbe7d9179	-0.24762525
148	0xbe3cd547	-0.18440734
149	0xbece5366	-0.40298003
150	0xbe95d0ea	-0.2926095
151	0xbc1acaad	-0.009447736
152	0x3ec86006	0.3913576
153	0x3d49872a	0.049201168
154	0xbe885028	-0.26623654
155	0xbe103cc7	-0.14085685
156	0x3d1f4070	0.03887981
157	0xbe308ca1	-0.17241146
158	0xbdf7a052	-0.120911255
159	0x3f0a0892	0.5391933
160	0x3ed1c682	0.40971762
161	0xbebd2092	-0.36938912
162	0x3ec74c2b	0.389253
163	0xbeb844cc	-0.35989988
164	0xbef2ba43	-0.4740773
165	0xbeea1b42	-0.4572392
166	0x3cf1b630	0.02950582
167	0xbe445373	-0.19172458
168	0x3f0c3c4f	0.54779524
169	0x3f3b18bd	0.7308462
170	0x3e71cdd9	0.23613681
171	0x3f5a8ea1	0.85373884
172	0xbd4d98c6	-0.050194524
173	0xbb40e842	-0.0029435311
174	0x3f5ddcc1	0.8666497
175	0x3e2e10f7	0.16998659
176	0x3c90984e	0.01765075
177	0x3de88072	0.11352624
178	0xbd07c3a3	-0.033145558
179	0x3f0a8f36	0.5412477
180	0x3e0ba603	0.13637547
181	0xbd703128	-0.05864063
182	0x3d215345	0.039386053
183	0x3ecbe2a6	0.39821357
184	0x3ccee19a	0.02525406
185	0x3e4d53e4	0.20051533
186	0x3d87c60c	0.06629571
187	0x3fd0627f	1.6280059
188	0x3f265936	0.64979875
189	0xbee56aaa	-0.4480794
190	0x3f6efaae	0.93351257
191	0x3dd093be	0.101844296
192	0x3f8e59f3	1.11212
193	0x3dee8e0f	0.11648189
194	0x3f0c93d5	0.54913074
195	0x3db9e9ad	0.09077773
196	0xbf5b0854	-0.8555958
197	0xbf02cc50	-0.51093006
198	0x3e16faed	0.14744158
199	0xbec1c409	-0.37844875
200	0x3f863228	1.0484056
201	0x3edcfe31	0.43162683
202	0x3d5ddeea	0.054167666
203	0x3e7f1b55	0.2491277
204	0xbea63f91	-0.32470372
205	0x3f1f5605	0.6224063
206	0xbcc99131	-0.024605365
207	0x3f4a0c1a	0.78924716
208	0x3fc1d7fc	1.5144038
209	0x3da8de95	0.08245579
210	0x3ed5404e	0.41650623
211	0x3fcc52f4	1.5962815
212	0xbe666780	-0.2250042
213	0x3f9afc89	1.2108318
214	0xbf10ad40	-0.5651436
215	0xbe331488	-0.17488301
216	0xbdb0cc83	-0.086327575
217	0x3e277a92	0.1635535
218	0xbe4a4cfc	-0.1975593
219	0xbf3a928b	-0.72879857
220	0xbe9b9377	-0.30385944
221	0xbee972f6	-0.4559552
222	0x3e78100e	0.24224874
223	0x3d106f80	0.035262585
224	0x3e95894e	0.29206318
225	0x3bb99c71	0.005664401
226	0x3ecd5845	0.40106407
227	0x3f16b3cf	0.58868116
228	0x3fcc3b1c	1.5955539
229	0xbf4dcae5	-0.8038772
230	0xbf029b93	-0.5101864
231	0x3e2ffa9e	0.17185447
232	0xbf45d97d	-0.77284986
233	0x3ec46562	0.383586
234	0xbf0dad6c	-0.55342746
235	0xbeaaa2fc	-0.33327472
236	0xbe64a452	-0.22328308
237	0xbec54268	-0.38527226
238	0xbda8c380	-0.08240414
239	0x3ea24259	0.31691244
240	0x3f06f5fb	0.52719086
241	0x3f57bf25	0.8427604
242	0xbf59c4dc	-0.8506601
243	0x3fc6325a	1.5484116
244	0x3f3c7f01	0.7363129
245	0x3e87c18e	0.26514858
246	0xbe00fff6	-0.12597641
247	0xbed41877	-0.41424915
248	0x3ea60b77	0.32430622
249	0x3f4b7d2b	0.79487866
250	0xbdbf57d7	-0.09342926
251	0x3e1403dc	0.14454597
252	0x3f3f3937	0.7469668
253	0x3eb029b3	0.34406814
254	0x3ec67b67	0.38766024
255	0x3d163b17	0.036677446
